…
/home/dmitrii/Documents/pyenvs/lr1_36/bin/python /home/dmitrii/Documents/thesis/SpeechRecognition/lip_reading/train_run.py
1 Physical GPUs, 1 Logical GPUs

Shuffle: True
Seed: 0
Found 28600 images belonging to 10 classes.
Shuffle: False
Seed: None
Found 4400 images belonging to 10 classes.
Model: "model"
_________________________________________________________________
Layer (type)                 Output Shape              Param #   
=================================================================
input_1 (InputLayer)         [(10, 22, 70, 140, 3)]    0         
_________________________________________________________________
zero_padding3d (ZeroPadding3 (10, 24, 70, 140, 3)      0         
_________________________________________________________________
conv3d (Conv3D)              (10, 22, 33, 68, 32)      7200      
_________________________________________________________________
batch_normalization (BatchNo (10, 22, 33, 68, 32)      128       
_________________________________________________________________
spatial_dropout3d (SpatialDr (10, 22, 33, 68, 32)      0         
_________________________________________________________________
max_pooling3d (MaxPooling3D) (10, 22, 16, 34, 32)      0         
_________________________________________________________________
zero_padding3d_1 (ZeroPaddin (10, 24, 16, 34, 32)      0         
_________________________________________________________________
conv3d_1 (Conv3D)            (10, 22, 12, 30, 64)      153600    
_________________________________________________________________
batch_normalization_1 (Batch (10, 22, 12, 30, 64)      256       
_________________________________________________________________
spatial_dropout3d_1 (Spatial (10, 22, 12, 30, 64)      0         
_________________________________________________________________
max_pooling3d_1 (MaxPooling3 (10, 22, 6, 15, 64)       0         
_________________________________________________________________
zero_padding3d_2 (ZeroPaddin (10, 24, 6, 15, 64)       0         
_________________________________________________________________
conv3d_2 (Conv3D)            (10, 22, 4, 13, 96)       165888    
_________________________________________________________________
batch_normalization_2 (Batch (10, 22, 4, 13, 96)       384       
_________________________________________________________________
spatial_dropout3d_2 (Spatial (10, 22, 4, 13, 96)       0         
_________________________________________________________________
max_pooling3d_2 (MaxPooling3 (10, 22, 2, 6, 96)        0         
_________________________________________________________________
time_distributed (TimeDistri (10, 22, 96)              0         
_________________________________________________________________
bidirectional (Bidirectional (10, 22, 512)             543744    
_________________________________________________________________
bidirectional_1 (Bidirection (10, 512)                 1182720   
_________________________________________________________________
dense (Dense)                (10, 10)                  5130      
=================================================================
Total params: 2,059,050
Trainable params: 2,058,666
Non-trainable params: 384
_________________________________________________________________

Learning rate = 1e-4
28600 10 22
4400 10 22
1 Physical GPUs, 1 Logical GPUs
Train for 130 steps, validate for 20 steps
Epoch 1/300
129/130 [============================>.] - ETA: 0s - loss: 2.3048 - accuracy: 0.0969
…
